{"config": {"name": "model_1", "layers": [{"config": {"name": "input_1", "batch_input_shape": [null, 128, 128, 3], "dtype": "float32", "sparse": false}, "name": "input_1", "inbound_nodes": [], "class_name": "InputLayer"}, {"config": {"name": "conv1", "kernel_constraint": null, "activity_regularizer": null, "kernel_size": [3, 3], "strides": [2, 2], "bias_regularizer": null, "kernel_initializer": {"config": {"seed": null, "mode": "fan_avg", "scale": 1.0, "distribution": "uniform"}, "class_name": "VarianceScaling"}, "kernel_regularizer": null, "trainable": false, "data_format": "channels_last", "use_bias": false, "bias_constraint": null, "dilation_rate": [1, 1], "filters": 24, "padding": "same", "activation": "linear", "bias_initializer": {"config": {}, "class_name": "Zeros"}}, "name": "conv1", "inbound_nodes": [[["input_1", 0, 0, {}]]], "class_name": "Conv2D"}, {"config": {"beta_regularizer": null, "name": "conv1_bn", "center": true, "scale": true, "beta_initializer": {"config": {}, "class_name": "Zeros"}, "moving_mean_initializer": {"config": {}, "class_name": "Zeros"}, "momentum": 0.99, "gamma_regularizer": null, "axis": -1, "gamma_constraint": null, "trainable": false, "gamma_initializer": {"config": {}, "class_name": "Ones"}, "beta_constraint": null, "epsilon": 0.001, "moving_variance_initializer": {"config": {}, "class_name": "Ones"}}, "name": "conv1_bn", "inbound_nodes": [[["conv1", 0, 0, {}]]], "class_name": "BatchNormalization"}, {"config": {"name": "conv1_relu", "activation": "relu6", "trainable": false}, "name": "conv1_relu", "inbound_nodes": [[["conv1_bn", 0, 0, {}]]], "class_name": "Activation"}, {"config": {"name": "conv_dw_1", "activation": "linear", "bias_constraint": null, "kernel_size": [3, 3], "strides": [1, 1], "bias_regularizer": null, "trainable": false, "depthwise_constraint": null, "depth_multiplier": 1, "use_bias": false, "depthwise_initializer": {"config": {"seed": null, "mode": "fan_avg", "scale": 1.0, "distribution": "uniform"}, "class_name": "VarianceScaling"}, "activity_regularizer": null, "dilation_rate": [1, 1], "depthwise_regularizer": null, "data_format": "channels_last", "bias_initializer": {"config": {}, "class_name": "Zeros"}, "padding": "same"}, "name": "conv_dw_1", "inbound_nodes": [[["conv1_relu", 0, 0, {}]]], "class_name": "DepthwiseConv2D"}, {"config": {"beta_regularizer": null, "name": "conv_dw_1_bn", "center": true, "scale": true, "beta_initializer": {"config": {}, "class_name": "Zeros"}, "moving_mean_initializer": {"config": {}, "class_name": "Zeros"}, "momentum": 0.99, "gamma_regularizer": null, "axis": -1, "gamma_constraint": null, "trainable": false, "gamma_initializer": {"config": {}, "class_name": "Ones"}, "beta_constraint": null, "epsilon": 0.001, "moving_variance_initializer": {"config": {}, "class_name": "Ones"}}, "name": "conv_dw_1_bn", "inbound_nodes": [[["conv_dw_1", 0, 0, {}]]], "class_name": "BatchNormalization"}, {"config": {"name": "conv_dw_1_relu", "activation": "relu6", "trainable": false}, "name": "conv_dw_1_relu", "inbound_nodes": [[["conv_dw_1_bn", 0, 0, {}]]], "class_name": "Activation"}, {"config": {"name": "conv_pw_1", "kernel_constraint": null, "activity_regularizer": null, "kernel_size": [1, 1], "strides": [1, 1], "bias_regularizer": null, "kernel_initializer": {"config": {"seed": null, "mode": "fan_avg", "scale": 1.0, "distribution": "uniform"}, "class_name": "VarianceScaling"}, "kernel_regularizer": null, "trainable": false, "data_format": "channels_last", "use_bias": false, "bias_constraint": null, "dilation_rate": [1, 1], "filters": 48, "padding": "same", "activation": "linear", "bias_initializer": {"config": {}, "class_name": "Zeros"}}, "name": "conv_pw_1", "inbound_nodes": [[["conv_dw_1_relu", 0, 0, {}]]], "class_name": "Conv2D"}, {"config": {"beta_regularizer": null, "name": "conv_pw_1_bn", "center": true, "scale": true, "beta_initializer": {"config": {}, "class_name": "Zeros"}, "moving_mean_initializer": {"config": {}, "class_name": "Zeros"}, "momentum": 0.99, "gamma_regularizer": null, "axis": -1, "gamma_constraint": null, "trainable": false, "gamma_initializer": {"config": {}, "class_name": "Ones"}, "beta_constraint": null, "epsilon": 0.001, "moving_variance_initializer": {"config": {}, "class_name": "Ones"}}, "name": "conv_pw_1_bn", "inbound_nodes": [[["conv_pw_1", 0, 0, {}]]], "class_name": "BatchNormalization"}, {"config": {"name": "conv_pw_1_relu", "activation": "relu6", "trainable": false}, "name": "conv_pw_1_relu", "inbound_nodes": [[["conv_pw_1_bn", 0, 0, {}]]], "class_name": "Activation"}, {"config": {"name": "conv_dw_2", "activation": "linear", "bias_constraint": null, "kernel_size": [3, 3], "strides": [2, 2], "bias_regularizer": null, "trainable": false, "depthwise_constraint": null, "depth_multiplier": 1, "use_bias": false, "depthwise_initializer": {"config": {"seed": null, "mode": "fan_avg", "scale": 1.0, "distribution": "uniform"}, "class_name": "VarianceScaling"}, "activity_regularizer": null, "dilation_rate": [1, 1], "depthwise_regularizer": null, "data_format": "channels_last", "bias_initializer": {"config": {}, "class_name": "Zeros"}, "padding": "same"}, "name": "conv_dw_2", "inbound_nodes": [[["conv_pw_1_relu", 0, 0, {}]]], "class_name": "DepthwiseConv2D"}, {"config": {"beta_regularizer": null, "name": "conv_dw_2_bn", "center": true, "scale": true, "beta_initializer": {"config": {}, "class_name": "Zeros"}, "moving_mean_initializer": {"config": {}, "class_name": "Zeros"}, "momentum": 0.99, "gamma_regularizer": null, "axis": -1, "gamma_constraint": null, "trainable": false, "gamma_initializer": {"config": {}, "class_name": "Ones"}, "beta_constraint": null, "epsilon": 0.001, "moving_variance_initializer": {"config": {}, "class_name": "Ones"}}, "name": "conv_dw_2_bn", "inbound_nodes": [[["conv_dw_2", 0, 0, {}]]], "class_name": "BatchNormalization"}, {"config": {"name": "conv_dw_2_relu", "activation": "relu6", "trainable": false}, "name": "conv_dw_2_relu", "inbound_nodes": [[["conv_dw_2_bn", 0, 0, {}]]], "class_name": "Activation"}, {"config": {"name": "conv_pw_2", "kernel_constraint": null, "activity_regularizer": null, "kernel_size": [1, 1], "strides": [1, 1], "bias_regularizer": null, "kernel_initializer": {"config": {"seed": null, "mode": "fan_avg", "scale": 1.0, "distribution": "uniform"}, "class_name": "VarianceScaling"}, "kernel_regularizer": null, "trainable": false, "data_format": "channels_last", "use_bias": false, "bias_constraint": null, "dilation_rate": [1, 1], "filters": 96, "padding": "same", "activation": "linear", "bias_initializer": {"config": {}, "class_name": "Zeros"}}, "name": "conv_pw_2", "inbound_nodes": [[["conv_dw_2_relu", 0, 0, {}]]], "class_name": "Conv2D"}, {"config": {"beta_regularizer": null, "name": "conv_pw_2_bn", "center": true, "scale": true, "beta_initializer": {"config": {}, "class_name": "Zeros"}, "moving_mean_initializer": {"config": {}, "class_name": "Zeros"}, "momentum": 0.99, "gamma_regularizer": null, "axis": -1, "gamma_constraint": null, "trainable": false, "gamma_initializer": {"config": {}, "class_name": "Ones"}, "beta_constraint": null, "epsilon": 0.001, "moving_variance_initializer": {"config": {}, "class_name": "Ones"}}, "name": "conv_pw_2_bn", "inbound_nodes": [[["conv_pw_2", 0, 0, {}]]], "class_name": "BatchNormalization"}, {"config": {"name": "conv_pw_2_relu", "activation": "relu6", "trainable": false}, "name": "conv_pw_2_relu", "inbound_nodes": [[["conv_pw_2_bn", 0, 0, {}]]], "class_name": "Activation"}, {"config": {"name": "conv_dw_3", "activation": "linear", "bias_constraint": null, "kernel_size": [3, 3], "strides": [1, 1], "bias_regularizer": null, "trainable": false, "depthwise_constraint": null, "depth_multiplier": 1, "use_bias": false, "depthwise_initializer": {"config": {"seed": null, "mode": "fan_avg", "scale": 1.0, "distribution": "uniform"}, "class_name": "VarianceScaling"}, "activity_regularizer": null, "dilation_rate": [1, 1], "depthwise_regularizer": null, "data_format": "channels_last", "bias_initializer": {"config": {}, "class_name": "Zeros"}, "padding": "same"}, "name": "conv_dw_3", "inbound_nodes": [[["conv_pw_2_relu", 0, 0, {}]]], "class_name": "DepthwiseConv2D"}, {"config": {"beta_regularizer": null, "name": "conv_dw_3_bn", "center": true, "scale": true, "beta_initializer": {"config": {}, "class_name": "Zeros"}, "moving_mean_initializer": {"config": {}, "class_name": "Zeros"}, "momentum": 0.99, "gamma_regularizer": null, "axis": -1, "gamma_constraint": null, "trainable": false, "gamma_initializer": {"config": {}, "class_name": "Ones"}, "beta_constraint": null, "epsilon": 0.001, "moving_variance_initializer": {"config": {}, "class_name": "Ones"}}, "name": "conv_dw_3_bn", "inbound_nodes": [[["conv_dw_3", 0, 0, {}]]], "class_name": "BatchNormalization"}, {"config": {"name": "conv_dw_3_relu", "activation": "relu6", "trainable": false}, "name": "conv_dw_3_relu", "inbound_nodes": [[["conv_dw_3_bn", 0, 0, {}]]], "class_name": "Activation"}, {"config": {"name": "conv_pw_3", "kernel_constraint": null, "activity_regularizer": null, "kernel_size": [1, 1], "strides": [1, 1], "bias_regularizer": null, "kernel_initializer": {"config": {"seed": null, "mode": "fan_avg", "scale": 1.0, "distribution": "uniform"}, "class_name": "VarianceScaling"}, "kernel_regularizer": null, "trainable": false, "data_format": "channels_last", "use_bias": false, "bias_constraint": null, "dilation_rate": [1, 1], "filters": 96, "padding": "same", "activation": "linear", "bias_initializer": {"config": {}, "class_name": "Zeros"}}, "name": "conv_pw_3", "inbound_nodes": [[["conv_dw_3_relu", 0, 0, {}]]], "class_name": "Conv2D"}, {"config": {"beta_regularizer": null, "name": "conv_pw_3_bn", "center": true, "scale": true, "beta_initializer": {"config": {}, "class_name": "Zeros"}, "moving_mean_initializer": {"config": {}, "class_name": "Zeros"}, "momentum": 0.99, "gamma_regularizer": null, "axis": -1, "gamma_constraint": null, "trainable": false, "gamma_initializer": {"config": {}, "class_name": "Ones"}, "beta_constraint": null, "epsilon": 0.001, "moving_variance_initializer": {"config": {}, "class_name": "Ones"}}, "name": "conv_pw_3_bn", "inbound_nodes": [[["conv_pw_3", 0, 0, {}]]], "class_name": "BatchNormalization"}, {"config": {"name": "conv_pw_3_relu", "activation": "relu6", "trainable": false}, "name": "conv_pw_3_relu", "inbound_nodes": [[["conv_pw_3_bn", 0, 0, {}]]], "class_name": "Activation"}, {"config": {"name": "conv_dw_4", "activation": "linear", "bias_constraint": null, "kernel_size": [3, 3], "strides": [2, 2], "bias_regularizer": null, "trainable": false, "depthwise_constraint": null, "depth_multiplier": 1, "use_bias": false, "depthwise_initializer": {"config": {"seed": null, "mode": "fan_avg", "scale": 1.0, "distribution": "uniform"}, "class_name": "VarianceScaling"}, "activity_regularizer": null, "dilation_rate": [1, 1], "depthwise_regularizer": null, "data_format": "channels_last", "bias_initializer": {"config": {}, "class_name": "Zeros"}, "padding": "same"}, "name": "conv_dw_4", "inbound_nodes": [[["conv_pw_3_relu", 0, 0, {}]]], "class_name": "DepthwiseConv2D"}, {"config": {"beta_regularizer": null, "name": "conv_dw_4_bn", "center": true, "scale": true, "beta_initializer": {"config": {}, "class_name": "Zeros"}, "moving_mean_initializer": {"config": {}, "class_name": "Zeros"}, "momentum": 0.99, "gamma_regularizer": null, "axis": -1, "gamma_constraint": null, "trainable": false, "gamma_initializer": {"config": {}, "class_name": "Ones"}, "beta_constraint": null, "epsilon": 0.001, "moving_variance_initializer": {"config": {}, "class_name": "Ones"}}, "name": "conv_dw_4_bn", "inbound_nodes": [[["conv_dw_4", 0, 0, {}]]], "class_name": "BatchNormalization"}, {"config": {"name": "conv_dw_4_relu", "activation": "relu6", "trainable": false}, "name": "conv_dw_4_relu", "inbound_nodes": [[["conv_dw_4_bn", 0, 0, {}]]], "class_name": "Activation"}, {"config": {"name": "conv_pw_4", "kernel_constraint": null, "activity_regularizer": null, "kernel_size": [1, 1], "strides": [1, 1], "bias_regularizer": null, "kernel_initializer": {"config": {"seed": null, "mode": "fan_avg", "scale": 1.0, "distribution": "uniform"}, "class_name": "VarianceScaling"}, "kernel_regularizer": null, "trainable": false, "data_format": "channels_last", "use_bias": false, "bias_constraint": null, "dilation_rate": [1, 1], "filters": 192, "padding": "same", "activation": "linear", "bias_initializer": {"config": {}, "class_name": "Zeros"}}, "name": "conv_pw_4", "inbound_nodes": [[["conv_dw_4_relu", 0, 0, {}]]], "class_name": "Conv2D"}, {"config": {"beta_regularizer": null, "name": "conv_pw_4_bn", "center": true, "scale": true, "beta_initializer": {"config": {}, "class_name": "Zeros"}, "moving_mean_initializer": {"config": {}, "class_name": "Zeros"}, "momentum": 0.99, "gamma_regularizer": null, "axis": -1, "gamma_constraint": null, "trainable": false, "gamma_initializer": {"config": {}, "class_name": "Ones"}, "beta_constraint": null, "epsilon": 0.001, "moving_variance_initializer": {"config": {}, "class_name": "Ones"}}, "name": "conv_pw_4_bn", "inbound_nodes": [[["conv_pw_4", 0, 0, {}]]], "class_name": "BatchNormalization"}, {"config": {"name": "conv_pw_4_relu", "activation": "relu6", "trainable": false}, "name": "conv_pw_4_relu", "inbound_nodes": [[["conv_pw_4_bn", 0, 0, {}]]], "class_name": "Activation"}, {"config": {"name": "conv_dw_5", "activation": "linear", "bias_constraint": null, "kernel_size": [3, 3], "strides": [1, 1], "bias_regularizer": null, "trainable": false, "depthwise_constraint": null, "depth_multiplier": 1, "use_bias": false, "depthwise_initializer": {"config": {"seed": null, "mode": "fan_avg", "scale": 1.0, "distribution": "uniform"}, "class_name": "VarianceScaling"}, "activity_regularizer": null, "dilation_rate": [1, 1], "depthwise_regularizer": null, "data_format": "channels_last", "bias_initializer": {"config": {}, "class_name": "Zeros"}, "padding": "same"}, "name": "conv_dw_5", "inbound_nodes": [[["conv_pw_4_relu", 0, 0, {}]]], "class_name": "DepthwiseConv2D"}, {"config": {"beta_regularizer": null, "name": "conv_dw_5_bn", "center": true, "scale": true, "beta_initializer": {"config": {}, "class_name": "Zeros"}, "moving_mean_initializer": {"config": {}, "class_name": "Zeros"}, "momentum": 0.99, "gamma_regularizer": null, "axis": -1, "gamma_constraint": null, "trainable": false, "gamma_initializer": {"config": {}, "class_name": "Ones"}, "beta_constraint": null, "epsilon": 0.001, "moving_variance_initializer": {"config": {}, "class_name": "Ones"}}, "name": "conv_dw_5_bn", "inbound_nodes": [[["conv_dw_5", 0, 0, {}]]], "class_name": "BatchNormalization"}, {"config": {"name": "conv_dw_5_relu", "activation": "relu6", "trainable": false}, "name": "conv_dw_5_relu", "inbound_nodes": [[["conv_dw_5_bn", 0, 0, {}]]], "class_name": "Activation"}, {"config": {"name": "conv_pw_5", "kernel_constraint": null, "activity_regularizer": null, "kernel_size": [1, 1], "strides": [1, 1], "bias_regularizer": null, "kernel_initializer": {"config": {"seed": null, "mode": "fan_avg", "scale": 1.0, "distribution": "uniform"}, "class_name": "VarianceScaling"}, "kernel_regularizer": null, "trainable": false, "data_format": "channels_last", "use_bias": false, "bias_constraint": null, "dilation_rate": [1, 1], "filters": 192, "padding": "same", "activation": "linear", "bias_initializer": {"config": {}, "class_name": "Zeros"}}, "name": "conv_pw_5", "inbound_nodes": [[["conv_dw_5_relu", 0, 0, {}]]], "class_name": "Conv2D"}, {"config": {"beta_regularizer": null, "name": "conv_pw_5_bn", "center": true, "scale": true, "beta_initializer": {"config": {}, "class_name": "Zeros"}, "moving_mean_initializer": {"config": {}, "class_name": "Zeros"}, "momentum": 0.99, "gamma_regularizer": null, "axis": -1, "gamma_constraint": null, "trainable": false, "gamma_initializer": {"config": {}, "class_name": "Ones"}, "beta_constraint": null, "epsilon": 0.001, "moving_variance_initializer": {"config": {}, "class_name": "Ones"}}, "name": "conv_pw_5_bn", "inbound_nodes": [[["conv_pw_5", 0, 0, {}]]], "class_name": "BatchNormalization"}, {"config": {"name": "conv_pw_5_relu", "activation": "relu6", "trainable": false}, "name": "conv_pw_5_relu", "inbound_nodes": [[["conv_pw_5_bn", 0, 0, {}]]], "class_name": "Activation"}, {"config": {"name": "conv_dw_6", "activation": "linear", "bias_constraint": null, "kernel_size": [3, 3], "strides": [2, 2], "bias_regularizer": null, "trainable": false, "depthwise_constraint": null, "depth_multiplier": 1, "use_bias": false, "depthwise_initializer": {"config": {"seed": null, "mode": "fan_avg", "scale": 1.0, "distribution": "uniform"}, "class_name": "VarianceScaling"}, "activity_regularizer": null, "dilation_rate": [1, 1], "depthwise_regularizer": null, "data_format": "channels_last", "bias_initializer": {"config": {}, "class_name": "Zeros"}, "padding": "same"}, "name": "conv_dw_6", "inbound_nodes": [[["conv_pw_5_relu", 0, 0, {}]]], "class_name": "DepthwiseConv2D"}, {"config": {"beta_regularizer": null, "name": "conv_dw_6_bn", "center": true, "scale": true, "beta_initializer": {"config": {}, "class_name": "Zeros"}, "moving_mean_initializer": {"config": {}, "class_name": "Zeros"}, "momentum": 0.99, "gamma_regularizer": null, "axis": -1, "gamma_constraint": null, "trainable": false, "gamma_initializer": {"config": {}, "class_name": "Ones"}, "beta_constraint": null, "epsilon": 0.001, "moving_variance_initializer": {"config": {}, "class_name": "Ones"}}, "name": "conv_dw_6_bn", "inbound_nodes": [[["conv_dw_6", 0, 0, {}]]], "class_name": "BatchNormalization"}, {"config": {"name": "conv_dw_6_relu", "activation": "relu6", "trainable": false}, "name": "conv_dw_6_relu", "inbound_nodes": [[["conv_dw_6_bn", 0, 0, {}]]], "class_name": "Activation"}, {"config": {"name": "conv_pw_6", "kernel_constraint": null, "activity_regularizer": null, "kernel_size": [1, 1], "strides": [1, 1], "bias_regularizer": null, "kernel_initializer": {"config": {"seed": null, "mode": "fan_avg", "scale": 1.0, "distribution": "uniform"}, "class_name": "VarianceScaling"}, "kernel_regularizer": null, "trainable": false, "data_format": "channels_last", "use_bias": false, "bias_constraint": null, "dilation_rate": [1, 1], "filters": 384, "padding": "same", "activation": "linear", "bias_initializer": {"config": {}, "class_name": "Zeros"}}, "name": "conv_pw_6", "inbound_nodes": [[["conv_dw_6_relu", 0, 0, {}]]], "class_name": "Conv2D"}, {"config": {"beta_regularizer": null, "name": "conv_pw_6_bn", "center": true, "scale": true, "beta_initializer": {"config": {}, "class_name": "Zeros"}, "moving_mean_initializer": {"config": {}, "class_name": "Zeros"}, "momentum": 0.99, "gamma_regularizer": null, "axis": -1, "gamma_constraint": null, "trainable": false, "gamma_initializer": {"config": {}, "class_name": "Ones"}, "beta_constraint": null, "epsilon": 0.001, "moving_variance_initializer": {"config": {}, "class_name": "Ones"}}, "name": "conv_pw_6_bn", "inbound_nodes": [[["conv_pw_6", 0, 0, {}]]], "class_name": "BatchNormalization"}, {"config": {"name": "conv_pw_6_relu", "activation": "relu6", "trainable": false}, "name": "conv_pw_6_relu", "inbound_nodes": [[["conv_pw_6_bn", 0, 0, {}]]], "class_name": "Activation"}, {"config": {"name": "conv_dw_7", "activation": "linear", "bias_constraint": null, "kernel_size": [3, 3], "strides": [1, 1], "bias_regularizer": null, "trainable": false, "depthwise_constraint": null, "depth_multiplier": 1, "use_bias": false, "depthwise_initializer": {"config": {"seed": null, "mode": "fan_avg", "scale": 1.0, "distribution": "uniform"}, "class_name": "VarianceScaling"}, "activity_regularizer": null, "dilation_rate": [1, 1], "depthwise_regularizer": null, "data_format": "channels_last", "bias_initializer": {"config": {}, "class_name": "Zeros"}, "padding": "same"}, "name": "conv_dw_7", "inbound_nodes": [[["conv_pw_6_relu", 0, 0, {}]]], "class_name": "DepthwiseConv2D"}, {"config": {"beta_regularizer": null, "name": "conv_dw_7_bn", "center": true, "scale": true, "beta_initializer": {"config": {}, "class_name": "Zeros"}, "moving_mean_initializer": {"config": {}, "class_name": "Zeros"}, "momentum": 0.99, "gamma_regularizer": null, "axis": -1, "gamma_constraint": null, "trainable": false, "gamma_initializer": {"config": {}, "class_name": "Ones"}, "beta_constraint": null, "epsilon": 0.001, "moving_variance_initializer": {"config": {}, "class_name": "Ones"}}, "name": "conv_dw_7_bn", "inbound_nodes": [[["conv_dw_7", 0, 0, {}]]], "class_name": "BatchNormalization"}, {"config": {"name": "conv_dw_7_relu", "activation": "relu6", "trainable": false}, "name": "conv_dw_7_relu", "inbound_nodes": [[["conv_dw_7_bn", 0, 0, {}]]], "class_name": "Activation"}, {"config": {"name": "conv_pw_7", "kernel_constraint": null, "activity_regularizer": null, "kernel_size": [1, 1], "strides": [1, 1], "bias_regularizer": null, "kernel_initializer": {"config": {"seed": null, "mode": "fan_avg", "scale": 1.0, "distribution": "uniform"}, "class_name": "VarianceScaling"}, "kernel_regularizer": null, "trainable": false, "data_format": "channels_last", "use_bias": false, "bias_constraint": null, "dilation_rate": [1, 1], "filters": 384, "padding": "same", "activation": "linear", "bias_initializer": {"config": {}, "class_name": "Zeros"}}, "name": "conv_pw_7", "inbound_nodes": [[["conv_dw_7_relu", 0, 0, {}]]], "class_name": "Conv2D"}, {"config": {"beta_regularizer": null, "name": "conv_pw_7_bn", "center": true, "scale": true, "beta_initializer": {"config": {}, "class_name": "Zeros"}, "moving_mean_initializer": {"config": {}, "class_name": "Zeros"}, "momentum": 0.99, "gamma_regularizer": null, "axis": -1, "gamma_constraint": null, "trainable": false, "gamma_initializer": {"config": {}, "class_name": "Ones"}, "beta_constraint": null, "epsilon": 0.001, "moving_variance_initializer": {"config": {}, "class_name": "Ones"}}, "name": "conv_pw_7_bn", "inbound_nodes": [[["conv_pw_7", 0, 0, {}]]], "class_name": "BatchNormalization"}, {"config": {"name": "conv_pw_7_relu", "activation": "relu6", "trainable": false}, "name": "conv_pw_7_relu", "inbound_nodes": [[["conv_pw_7_bn", 0, 0, {}]]], "class_name": "Activation"}, {"config": {"name": "conv_dw_8", "activation": "linear", "bias_constraint": null, "kernel_size": [3, 3], "strides": [1, 1], "bias_regularizer": null, "trainable": false, "depthwise_constraint": null, "depth_multiplier": 1, "use_bias": false, "depthwise_initializer": {"config": {"seed": null, "mode": "fan_avg", "scale": 1.0, "distribution": "uniform"}, "class_name": "VarianceScaling"}, "activity_regularizer": null, "dilation_rate": [1, 1], "depthwise_regularizer": null, "data_format": "channels_last", "bias_initializer": {"config": {}, "class_name": "Zeros"}, "padding": "same"}, "name": "conv_dw_8", "inbound_nodes": [[["conv_pw_7_relu", 0, 0, {}]]], "class_name": "DepthwiseConv2D"}, {"config": {"beta_regularizer": null, "name": "conv_dw_8_bn", "center": true, "scale": true, "beta_initializer": {"config": {}, "class_name": "Zeros"}, "moving_mean_initializer": {"config": {}, "class_name": "Zeros"}, "momentum": 0.99, "gamma_regularizer": null, "axis": -1, "gamma_constraint": null, "trainable": false, "gamma_initializer": {"config": {}, "class_name": "Ones"}, "beta_constraint": null, "epsilon": 0.001, "moving_variance_initializer": {"config": {}, "class_name": "Ones"}}, "name": "conv_dw_8_bn", "inbound_nodes": [[["conv_dw_8", 0, 0, {}]]], "class_name": "BatchNormalization"}, {"config": {"name": "conv_dw_8_relu", "activation": "relu6", "trainable": false}, "name": "conv_dw_8_relu", "inbound_nodes": [[["conv_dw_8_bn", 0, 0, {}]]], "class_name": "Activation"}, {"config": {"name": "conv_pw_8", "kernel_constraint": null, "activity_regularizer": null, "kernel_size": [1, 1], "strides": [1, 1], "bias_regularizer": null, "kernel_initializer": {"config": {"seed": null, "mode": "fan_avg", "scale": 1.0, "distribution": "uniform"}, "class_name": "VarianceScaling"}, "kernel_regularizer": null, "trainable": false, "data_format": "channels_last", "use_bias": false, "bias_constraint": null, "dilation_rate": [1, 1], "filters": 384, "padding": "same", "activation": "linear", "bias_initializer": {"config": {}, "class_name": "Zeros"}}, "name": "conv_pw_8", "inbound_nodes": [[["conv_dw_8_relu", 0, 0, {}]]], "class_name": "Conv2D"}, {"config": {"beta_regularizer": null, "name": "conv_pw_8_bn", "center": true, "scale": true, "beta_initializer": {"config": {}, "class_name": "Zeros"}, "moving_mean_initializer": {"config": {}, "class_name": "Zeros"}, "momentum": 0.99, "gamma_regularizer": null, "axis": -1, "gamma_constraint": null, "trainable": false, "gamma_initializer": {"config": {}, "class_name": "Ones"}, "beta_constraint": null, "epsilon": 0.001, "moving_variance_initializer": {"config": {}, "class_name": "Ones"}}, "name": "conv_pw_8_bn", "inbound_nodes": [[["conv_pw_8", 0, 0, {}]]], "class_name": "BatchNormalization"}, {"config": {"name": "conv_pw_8_relu", "activation": "relu6", "trainable": false}, "name": "conv_pw_8_relu", "inbound_nodes": [[["conv_pw_8_bn", 0, 0, {}]]], "class_name": "Activation"}, {"config": {"name": "conv_dw_9", "activation": "linear", "bias_constraint": null, "kernel_size": [3, 3], "strides": [1, 1], "bias_regularizer": null, "trainable": false, "depthwise_constraint": null, "depth_multiplier": 1, "use_bias": false, "depthwise_initializer": {"config": {"seed": null, "mode": "fan_avg", "scale": 1.0, "distribution": "uniform"}, "class_name": "VarianceScaling"}, "activity_regularizer": null, "dilation_rate": [1, 1], "depthwise_regularizer": null, "data_format": "channels_last", "bias_initializer": {"config": {}, "class_name": "Zeros"}, "padding": "same"}, "name": "conv_dw_9", "inbound_nodes": [[["conv_pw_8_relu", 0, 0, {}]]], "class_name": "DepthwiseConv2D"}, {"config": {"beta_regularizer": null, "name": "conv_dw_9_bn", "center": true, "scale": true, "beta_initializer": {"config": {}, "class_name": "Zeros"}, "moving_mean_initializer": {"config": {}, "class_name": "Zeros"}, "momentum": 0.99, "gamma_regularizer": null, "axis": -1, "gamma_constraint": null, "trainable": false, "gamma_initializer": {"config": {}, "class_name": "Ones"}, "beta_constraint": null, "epsilon": 0.001, "moving_variance_initializer": {"config": {}, "class_name": "Ones"}}, "name": "conv_dw_9_bn", "inbound_nodes": [[["conv_dw_9", 0, 0, {}]]], "class_name": "BatchNormalization"}, {"config": {"name": "conv_dw_9_relu", "activation": "relu6", "trainable": false}, "name": "conv_dw_9_relu", "inbound_nodes": [[["conv_dw_9_bn", 0, 0, {}]]], "class_name": "Activation"}, {"config": {"name": "conv_pw_9", "kernel_constraint": null, "activity_regularizer": null, "kernel_size": [1, 1], "strides": [1, 1], "bias_regularizer": null, "kernel_initializer": {"config": {"seed": null, "mode": "fan_avg", "scale": 1.0, "distribution": "uniform"}, "class_name": "VarianceScaling"}, "kernel_regularizer": null, "trainable": false, "data_format": "channels_last", "use_bias": false, "bias_constraint": null, "dilation_rate": [1, 1], "filters": 384, "padding": "same", "activation": "linear", "bias_initializer": {"config": {}, "class_name": "Zeros"}}, "name": "conv_pw_9", "inbound_nodes": [[["conv_dw_9_relu", 0, 0, {}]]], "class_name": "Conv2D"}, {"config": {"beta_regularizer": null, "name": "conv_pw_9_bn", "center": true, "scale": true, "beta_initializer": {"config": {}, "class_name": "Zeros"}, "moving_mean_initializer": {"config": {}, "class_name": "Zeros"}, "momentum": 0.99, "gamma_regularizer": null, "axis": -1, "gamma_constraint": null, "trainable": false, "gamma_initializer": {"config": {}, "class_name": "Ones"}, "beta_constraint": null, "epsilon": 0.001, "moving_variance_initializer": {"config": {}, "class_name": "Ones"}}, "name": "conv_pw_9_bn", "inbound_nodes": [[["conv_pw_9", 0, 0, {}]]], "class_name": "BatchNormalization"}, {"config": {"name": "conv_pw_9_relu", "activation": "relu6", "trainable": false}, "name": "conv_pw_9_relu", "inbound_nodes": [[["conv_pw_9_bn", 0, 0, {}]]], "class_name": "Activation"}, {"config": {"name": "conv_dw_10", "activation": "linear", "bias_constraint": null, "kernel_size": [3, 3], "strides": [1, 1], "bias_regularizer": null, "trainable": false, "depthwise_constraint": null, "depth_multiplier": 1, "use_bias": false, "depthwise_initializer": {"config": {"seed": null, "mode": "fan_avg", "scale": 1.0, "distribution": "uniform"}, "class_name": "VarianceScaling"}, "activity_regularizer": null, "dilation_rate": [1, 1], "depthwise_regularizer": null, "data_format": "channels_last", "bias_initializer": {"config": {}, "class_name": "Zeros"}, "padding": "same"}, "name": "conv_dw_10", "inbound_nodes": [[["conv_pw_9_relu", 0, 0, {}]]], "class_name": "DepthwiseConv2D"}, {"config": {"beta_regularizer": null, "name": "conv_dw_10_bn", "center": true, "scale": true, "beta_initializer": {"config": {}, "class_name": "Zeros"}, "moving_mean_initializer": {"config": {}, "class_name": "Zeros"}, "momentum": 0.99, "gamma_regularizer": null, "axis": -1, "gamma_constraint": null, "trainable": false, "gamma_initializer": {"config": {}, "class_name": "Ones"}, "beta_constraint": null, "epsilon": 0.001, "moving_variance_initializer": {"config": {}, "class_name": "Ones"}}, "name": "conv_dw_10_bn", "inbound_nodes": [[["conv_dw_10", 0, 0, {}]]], "class_name": "BatchNormalization"}, {"config": {"name": "conv_dw_10_relu", "activation": "relu6", "trainable": true}, "name": "conv_dw_10_relu", "inbound_nodes": [[["conv_dw_10_bn", 0, 0, {}]]], "class_name": "Activation"}, {"config": {"name": "conv_pw_10", "kernel_constraint": null, "activity_regularizer": null, "kernel_size": [1, 1], "strides": [1, 1], "bias_regularizer": null, "kernel_initializer": {"config": {"seed": null, "mode": "fan_avg", "scale": 1.0, "distribution": "uniform"}, "class_name": "VarianceScaling"}, "kernel_regularizer": null, "trainable": true, "data_format": "channels_last", "use_bias": false, "bias_constraint": null, "dilation_rate": [1, 1], "filters": 384, "padding": "same", "activation": "linear", "bias_initializer": {"config": {}, "class_name": "Zeros"}}, "name": "conv_pw_10", "inbound_nodes": [[["conv_dw_10_relu", 0, 0, {}]]], "class_name": "Conv2D"}, {"config": {"beta_regularizer": null, "name": "conv_pw_10_bn", "center": true, "scale": true, "beta_initializer": {"config": {}, "class_name": "Zeros"}, "moving_mean_initializer": {"config": {}, "class_name": "Zeros"}, "momentum": 0.99, "gamma_regularizer": null, "axis": -1, "gamma_constraint": null, "trainable": true, "gamma_initializer": {"config": {}, "class_name": "Ones"}, "beta_constraint": null, "epsilon": 0.001, "moving_variance_initializer": {"config": {}, "class_name": "Ones"}}, "name": "conv_pw_10_bn", "inbound_nodes": [[["conv_pw_10", 0, 0, {}]]], "class_name": "BatchNormalization"}, {"config": {"name": "conv_pw_10_relu", "activation": "relu6", "trainable": true}, "name": "conv_pw_10_relu", "inbound_nodes": [[["conv_pw_10_bn", 0, 0, {}]]], "class_name": "Activation"}, {"config": {"name": "conv_dw_11", "activation": "linear", "bias_constraint": null, "kernel_size": [3, 3], "strides": [1, 1], "bias_regularizer": null, "trainable": true, "depthwise_constraint": null, "depth_multiplier": 1, "use_bias": false, "depthwise_initializer": {"config": {"seed": null, "mode": "fan_avg", "scale": 1.0, "distribution": "uniform"}, "class_name": "VarianceScaling"}, "activity_regularizer": null, "dilation_rate": [1, 1], "depthwise_regularizer": null, "data_format": "channels_last", "bias_initializer": {"config": {}, "class_name": "Zeros"}, "padding": "same"}, "name": "conv_dw_11", "inbound_nodes": [[["conv_pw_10_relu", 0, 0, {}]]], "class_name": "DepthwiseConv2D"}, {"config": {"beta_regularizer": null, "name": "conv_dw_11_bn", "center": true, "scale": true, "beta_initializer": {"config": {}, "class_name": "Zeros"}, "moving_mean_initializer": {"config": {}, "class_name": "Zeros"}, "momentum": 0.99, "gamma_regularizer": null, "axis": -1, "gamma_constraint": null, "trainable": true, "gamma_initializer": {"config": {}, "class_name": "Ones"}, "beta_constraint": null, "epsilon": 0.001, "moving_variance_initializer": {"config": {}, "class_name": "Ones"}}, "name": "conv_dw_11_bn", "inbound_nodes": [[["conv_dw_11", 0, 0, {}]]], "class_name": "BatchNormalization"}, {"config": {"name": "conv_dw_11_relu", "activation": "relu6", "trainable": true}, "name": "conv_dw_11_relu", "inbound_nodes": [[["conv_dw_11_bn", 0, 0, {}]]], "class_name": "Activation"}, {"config": {"name": "conv_pw_11", "kernel_constraint": null, "activity_regularizer": null, "kernel_size": [1, 1], "strides": [1, 1], "bias_regularizer": null, "kernel_initializer": {"config": {"seed": null, "mode": "fan_avg", "scale": 1.0, "distribution": "uniform"}, "class_name": "VarianceScaling"}, "kernel_regularizer": null, "trainable": true, "data_format": "channels_last", "use_bias": false, "bias_constraint": null, "dilation_rate": [1, 1], "filters": 384, "padding": "same", "activation": "linear", "bias_initializer": {"config": {}, "class_name": "Zeros"}}, "name": "conv_pw_11", "inbound_nodes": [[["conv_dw_11_relu", 0, 0, {}]]], "class_name": "Conv2D"}, {"config": {"beta_regularizer": null, "name": "conv_pw_11_bn", "center": true, "scale": true, "beta_initializer": {"config": {}, "class_name": "Zeros"}, "moving_mean_initializer": {"config": {}, "class_name": "Zeros"}, "momentum": 0.99, "gamma_regularizer": null, "axis": -1, "gamma_constraint": null, "trainable": true, "gamma_initializer": {"config": {}, "class_name": "Ones"}, "beta_constraint": null, "epsilon": 0.001, "moving_variance_initializer": {"config": {}, "class_name": "Ones"}}, "name": "conv_pw_11_bn", "inbound_nodes": [[["conv_pw_11", 0, 0, {}]]], "class_name": "BatchNormalization"}, {"config": {"name": "conv_pw_11_relu", "activation": "relu6", "trainable": true}, "name": "conv_pw_11_relu", "inbound_nodes": [[["conv_pw_11_bn", 0, 0, {}]]], "class_name": "Activation"}, {"config": {"name": "conv_dw_12", "activation": "linear", "bias_constraint": null, "kernel_size": [3, 3], "strides": [2, 2], "bias_regularizer": null, "trainable": true, "depthwise_constraint": null, "depth_multiplier": 1, "use_bias": false, "depthwise_initializer": {"config": {"seed": null, "mode": "fan_avg", "scale": 1.0, "distribution": "uniform"}, "class_name": "VarianceScaling"}, "activity_regularizer": null, "dilation_rate": [1, 1], "depthwise_regularizer": null, "data_format": "channels_last", "bias_initializer": {"config": {}, "class_name": "Zeros"}, "padding": "same"}, "name": "conv_dw_12", "inbound_nodes": [[["conv_pw_11_relu", 0, 0, {}]]], "class_name": "DepthwiseConv2D"}, {"config": {"beta_regularizer": null, "name": "conv_dw_12_bn", "center": true, "scale": true, "beta_initializer": {"config": {}, "class_name": "Zeros"}, "moving_mean_initializer": {"config": {}, "class_name": "Zeros"}, "momentum": 0.99, "gamma_regularizer": null, "axis": -1, "gamma_constraint": null, "trainable": true, "gamma_initializer": {"config": {}, "class_name": "Ones"}, "beta_constraint": null, "epsilon": 0.001, "moving_variance_initializer": {"config": {}, "class_name": "Ones"}}, "name": "conv_dw_12_bn", "inbound_nodes": [[["conv_dw_12", 0, 0, {}]]], "class_name": "BatchNormalization"}, {"config": {"name": "conv_dw_12_relu", "activation": "relu6", "trainable": true}, "name": "conv_dw_12_relu", "inbound_nodes": [[["conv_dw_12_bn", 0, 0, {}]]], "class_name": "Activation"}, {"config": {"name": "conv_pw_12", "kernel_constraint": null, "activity_regularizer": null, "kernel_size": [1, 1], "strides": [1, 1], "bias_regularizer": null, "kernel_initializer": {"config": {"seed": null, "mode": "fan_avg", "scale": 1.0, "distribution": "uniform"}, "class_name": "VarianceScaling"}, "kernel_regularizer": null, "trainable": true, "data_format": "channels_last", "use_bias": false, "bias_constraint": null, "dilation_rate": [1, 1], "filters": 768, "padding": "same", "activation": "linear", "bias_initializer": {"config": {}, "class_name": "Zeros"}}, "name": "conv_pw_12", "inbound_nodes": [[["conv_dw_12_relu", 0, 0, {}]]], "class_name": "Conv2D"}, {"config": {"beta_regularizer": null, "name": "conv_pw_12_bn", "center": true, "scale": true, "beta_initializer": {"config": {}, "class_name": "Zeros"}, "moving_mean_initializer": {"config": {}, "class_name": "Zeros"}, "momentum": 0.99, "gamma_regularizer": null, "axis": -1, "gamma_constraint": null, "trainable": true, "gamma_initializer": {"config": {}, "class_name": "Ones"}, "beta_constraint": null, "epsilon": 0.001, "moving_variance_initializer": {"config": {}, "class_name": "Ones"}}, "name": "conv_pw_12_bn", "inbound_nodes": [[["conv_pw_12", 0, 0, {}]]], "class_name": "BatchNormalization"}, {"config": {"name": "conv_pw_12_relu", "activation": "relu6", "trainable": true}, "name": "conv_pw_12_relu", "inbound_nodes": [[["conv_pw_12_bn", 0, 0, {}]]], "class_name": "Activation"}, {"config": {"name": "conv_dw_13", "activation": "linear", "bias_constraint": null, "kernel_size": [3, 3], "strides": [1, 1], "bias_regularizer": null, "trainable": true, "depthwise_constraint": null, "depth_multiplier": 1, "use_bias": false, "depthwise_initializer": {"config": {"seed": null, "mode": "fan_avg", "scale": 1.0, "distribution": "uniform"}, "class_name": "VarianceScaling"}, "activity_regularizer": null, "dilation_rate": [1, 1], "depthwise_regularizer": null, "data_format": "channels_last", "bias_initializer": {"config": {}, "class_name": "Zeros"}, "padding": "same"}, "name": "conv_dw_13", "inbound_nodes": [[["conv_pw_12_relu", 0, 0, {}]]], "class_name": "DepthwiseConv2D"}, {"config": {"beta_regularizer": null, "name": "conv_dw_13_bn", "center": true, "scale": true, "beta_initializer": {"config": {}, "class_name": "Zeros"}, "moving_mean_initializer": {"config": {}, "class_name": "Zeros"}, "momentum": 0.99, "gamma_regularizer": null, "axis": -1, "gamma_constraint": null, "trainable": true, "gamma_initializer": {"config": {}, "class_name": "Ones"}, "beta_constraint": null, "epsilon": 0.001, "moving_variance_initializer": {"config": {}, "class_name": "Ones"}}, "name": "conv_dw_13_bn", "inbound_nodes": [[["conv_dw_13", 0, 0, {}]]], "class_name": "BatchNormalization"}, {"config": {"name": "conv_dw_13_relu", "activation": "relu6", "trainable": true}, "name": "conv_dw_13_relu", "inbound_nodes": [[["conv_dw_13_bn", 0, 0, {}]]], "class_name": "Activation"}, {"config": {"name": "conv_pw_13", "kernel_constraint": null, "activity_regularizer": null, "kernel_size": [1, 1], "strides": [1, 1], "bias_regularizer": null, "kernel_initializer": {"config": {"seed": null, "mode": "fan_avg", "scale": 1.0, "distribution": "uniform"}, "class_name": "VarianceScaling"}, "kernel_regularizer": null, "trainable": true, "data_format": "channels_last", "use_bias": false, "bias_constraint": null, "dilation_rate": [1, 1], "filters": 768, "padding": "same", "activation": "linear", "bias_initializer": {"config": {}, "class_name": "Zeros"}}, "name": "conv_pw_13", "inbound_nodes": [[["conv_dw_13_relu", 0, 0, {}]]], "class_name": "Conv2D"}, {"config": {"beta_regularizer": null, "name": "conv_pw_13_bn", "center": true, "scale": true, "beta_initializer": {"config": {}, "class_name": "Zeros"}, "moving_mean_initializer": {"config": {}, "class_name": "Zeros"}, "momentum": 0.99, "gamma_regularizer": null, "axis": -1, "gamma_constraint": null, "trainable": true, "gamma_initializer": {"config": {}, "class_name": "Ones"}, "beta_constraint": null, "epsilon": 0.001, "moving_variance_initializer": {"config": {}, "class_name": "Ones"}}, "name": "conv_pw_13_bn", "inbound_nodes": [[["conv_pw_13", 0, 0, {}]]], "class_name": "BatchNormalization"}, {"config": {"name": "conv_pw_13_relu", "activation": "relu6", "trainable": true}, "name": "conv_pw_13_relu", "inbound_nodes": [[["conv_pw_13_bn", 0, 0, {}]]], "class_name": "Activation"}, {"config": {"name": "global_average_pooling2d_1", "data_format": "channels_last", "trainable": true}, "name": "global_average_pooling2d_1", "inbound_nodes": [[["conv_pw_13_relu", 0, 0, {}]]], "class_name": "GlobalAveragePooling2D"}, {"config": {"name": "dense_1", "kernel_constraint": null, "bias_constraint": null, "bias_regularizer": null, "bias_initializer": {"config": {}, "class_name": "Zeros"}, "kernel_initializer": {"config": {"seed": null, "mode": "fan_avg", "scale": 1.0, "distribution": "uniform"}, "class_name": "VarianceScaling"}, "trainable": true, "use_bias": true, "activity_regularizer": null, "kernel_regularizer": null, "activation": "relu", "units": 128}, "name": "dense_1", "inbound_nodes": [[["global_average_pooling2d_1", 0, 0, {}]]], "class_name": "Dense"}, {"config": {"name": "dense_2", "kernel_constraint": null, "bias_constraint": null, "bias_regularizer": null, "bias_initializer": {"config": {}, "class_name": "Zeros"}, "kernel_initializer": {"config": {"seed": null, "mode": "fan_avg", "scale": 1.0, "distribution": "uniform"}, "class_name": "VarianceScaling"}, "trainable": true, "use_bias": true, "activity_regularizer": null, "kernel_regularizer": null, "activation": "softmax", "units": 2}, "name": "dense_2", "inbound_nodes": [[["dense_1", 0, 0, {}]]], "class_name": "Dense"}], "output_layers": [["dense_2", 0, 0]], "input_layers": [["input_1", 0, 0]]}, "class_name": "Model", "backend": "tensorflow", "keras_version": "2.1.2"}